convolutional-neural-networks/cifar-cnn/model_cifar.pt (torch, 251191 bytes, 10 tensors)

conv1.weight f4 [6, 3, 5, 5]
00000000: bbef 82be bf3e e5be 826c dbbe 47e5 7bbe
00000010: e4d7 68be e403 7bbe 42e3 d2be ed81 f2be
00000020: d405 f0be 16d4 79be e546 51be 486a 8bbe
00000030: eaa2 ddbe 56c8 c6be 7610 51be cc3e 163e
00000040: 606c 243e 05c5 86bc dbd3 663d fd90 053e
00000050: 8c7c bc3e abad de3e 96c6 b53e a4ea ab3e
00000060: afe5 503e 9422 863d 89f7 333e 1bb1 7b3d
00000070: 52eb 083e c998 f73d 0b35 263e 6528 ca3d
00000080: 9dcf 853e c978 4f3e 2742 513e 0a53 99bd
00000090: acd4 2e3d a3cd 2a3d 8825 293e 95e7 593c
000000a0: d2cd 03be 0655 d5bd f92a 923c fa8c 09bd
000000b0: fd0e 043d 9546 a1be 2b90 abbe 6430 e4bd
000000c0: d133 07be bd9d 5ebe 1a5a a33e b9f4 733e
000000d0: 3317 673e 3e48 213e 641e 35bc 1085 583e
000000e0: d48d ef3e 14a7 8b3e d545 953e 79be 04bd
000000f0: be04 1e3e 7fb4 873e f9a3 9e3e 7a08 803e
00000100: 9310 fe3d 900c 313c d35d ea3d c237 353e
00000110: 8ece c83c f404 07be 1fe0 c5be e8d1 b8bd
00000120: 50ec 28be 05c1 55bd 4c5e 94be 531d b2be
00000130: f9fb 06be e9df 103f 5969 803d 8db5 75be
00000140: f3c1 1cbe 261c 283f 5c3d 29bd 8974 6abf
00000150: 72eb cc3d 1b89 433e 160f 48be a3a3 83bf
00000160: f863 9fbe 8beb 3f3f 5ea5 92be 7f19 c7be
00000170: 7281 f23d 7078 cf3e a36a 83ba 3a07 443e
00000180: 71a3 373e de9e a63d 47d7 c53e 427f b0bd
00000190: 9afe 07be 9eac ae3d 9c2d 2c3f 0478 00be
000001a0: 6762 b9be 1aaa 573e bd1f 663f 2bfc 68bd
000001b0: 47a6 3fbf e2e4 ccbd 00e8 fc3e b68a 533d
000001c0: 757d 5bbf 3164 0dbe 3471 303f d0ac ccbd
000001d0: 0ea9 83be e038 233e ca91 b53e e584 14be
000001e0: 3f37 1b3e 4ab4 a0bd 643b 22be 0db8 733b
000001f0: c4d1 e4be d98d 73be ee33 bbbd 1a2b 293f
00000200: 870c 7b3d c1fc 49be 9219 36be 18af 1e3f
00000210: d14c 89bd eb5a 2bbf 27d1 693e 9fe7 0d3e
00000220: 1b43 b3bc 67d5 54bf 4922 28be e03b 253f
00000230: 1f2a 8dbe 3722 82be 6c16 353e 55fa 003f
00000240: d1ef f5bd 0337 213d b156 d4bd b560 8e3c
00000250: 9666 6f3e 1868 33be 0cdb fd3d 911e ce3c
00000260: 432d 32be 92f7 ab3e d170 f4ba ba84 713e
00000270: f3d6 c13e e860 32be 103d a03d 0668 f23d
00000280: c5a9 c63d bdd2 723f d11b 4a3f 23af 543f
00000290: 9df2 2d3e ebbc f2be 2979 5cbe 0137 59be
000002a0: b206 55be b2a8 81be 94f4 6dbe 6f26 11bf
000002b0: d229 2bbf 9edd 8cbe cecd 07be 73fa 4c3e
000002c0: 973c bc3d 5562 abbe 49e5 e7bc ad71 7c3b
000002d0: 61a9 2ebe 9a0e 2abe 49c0 24bf b893 95be
000002e0: 6405 6fbe 5641 96bd b1cd 383f f4b0 103f
000002f0: feab 463f b2c1 efbd 0705 b8be 7bc1 d3bd
00000300: dc4c 77be 2127 b2bd 3a67 c5be 292a 8b3d
00000310: d3ca 38be b29f ddbe ddd7 0a3c 07a6 0d3e
00000320: 6694 3e3d 8a83 0ebd 07d4 cebd 74e2 8b3e
00000330: 9a0f a2bc 277b 9bbd 72c1 8ebe b588 1ebf
00000340: 8b47 47be 6cdf 9cbe b01b bbbd a233 093f
00000350: 3e12 a23e b15e 203f b836 0d3e 687f 7bbe
00000360: 09ba 143e 0b07 abbd 13e8 0e3e 86a7 71be
00000370: 9674 e53e 1412 a43d bf51 a8bd c6f8 e23d
00000380: 36e4 db3d 1c2b 063d 6085 a73d bb5d 133e
00000390: 404b b83d a8d1 c03e 90ee 4bbd 2768 603d
000003a0: 2e40 81be e089 5fbe 6996 c23e 2745 90bd
000003b0: 56b8 ba3e 2fc6 21be b648 25bf fa4c c33e
000003c0: 7007 62bd d108 b23e fcfe 04bd ecc1 16bf
000003d0: 1b7d 843e 015e 4cbc ba8a 3b3e b03d a13d
000003e0: 2516 cdbe 7f6f ec3c 0201 22ba bd01 06be
000003f0: 8754 dabd a422 4bbe 38e0 0abd d5e8 56bb
-0.25573525 -0.44774434 -0.42856222 -0.24599181 -0.22738606 -0.24513203 -0.4118901 -0.4736475
-0.46879447 -0.2439731 -0.204372 -0.27229524 -0.43288356 -0.3882472 -0.20416436 0.14672393
0.16056967 -0.016451368 0.056354385 0.1304359 0.36813772 0.43491873 0.35503072 0.33577454
0.20400117 0.06549564 0.17574896 0.061448198 0.13371018 0.12089688 0.16231172 0.09870986
0.2613496 0.2026092 0.20435391 -0.074865416 0.04268329 0.041700017 0.16518223 0.013299842
-0.12871483 -0.104166076 0.017842757 -0.03358171 0.032240856 -0.31499162 -0.3350843 -0.11142042
-0.1320336 -0.2173986 0.3190468 0.23823823 0.22567444 0.15750214 -0.011054609 0.2114451
0.46787894 0.27275908 0.2915484 -0.03240821 0.15431497 0.26504895 0.30984476 0.25006467
0.12405505 0.010806218 0.11443677 0.17697051 0.024512555 -0.13185483 -0.38647553 -0.090244114
-0.16496396 -0.05218603 -0.28978193 -0.34787998 -0.13182057 0.5659166 0.062700935 -0.23995037
-0.15308361 0.6566795 -0.041318282 -0.9158407 0.10005845 0.1909527 -0.19537005 -1.0284313
-0.31130958 0.74968785 -0.2864179 -0.3888664 0.11841096 0.40521574 -0.0010026287 0.19143382
0.17933442 0.0813577 0.38640806 -0.086180225 -0.13280717 0.08529018 0.67257094 -0.12545782
-0.36207888 0.21060982 0.8989218 -0.05688111 -0.74863094 -0.100045934 0.49395752 0.051645957
-0.8573831 -0.13807751 0.68922734 -0.09993899 -0.25714916 0.15939665 0.3546279 -0.1450382
0.15157793 -0.078468874 -0.15842968 0.003718856 -0.44691288 -0.2378458 -0.09140764 0.6608139
0.061291244 -0.19725324 -0.17783192 0.6198592 -0.06704105 -0.66935605 0.22833692 0.13857888
-0.021882584 -0.83138126 -0.16419329 0.64544487 -0.27571198 -0.2541673 0.17684335 0.50381976
-0.12008632 0.039359104 -0.103680976 0.017380098 0.23378977 -0.17520177 0.123952955 0.02516106
-0.17400078 0.3358732 -0.0018649345 0.23585787 0.37859306 -0.1741978 0.07824147 0.11836247
0.0970035 0.9485281 0.78948694 0.8307974 0.16987081 -0.47409758 -0.21530594 -0.21212389
-0.20803335 -0.25324017 -0.2323783 -0.5669927 -0.6686069 -0.2751283 -0.13262102 0.20017414
0.09191244 -0.3347346 -0.028307574 0.0038519904 -0.170568 -0.16607133 -0.64355904 -0.29214263
-0.233419 -0.073366806 0.7218886 0.5652001 0.7760619 -0.11706866 -0.35941336 -0.10339638
-0.24150413 -0.086988695 -0.38555318 0.06795151 -0.18046121 -0.432859 0.008474317 0.13832866
0.046528243 -0.034793414 -0.10099035 0.27321208 -0.01978283 -0.07591849 -0.27881962 -0.6192735
-0.19460885 -0.30639207 -0.0913614 0.5359441 0.31654543 0.6264449 0.13790405 -0.2456032
0.14524092 -0.08350953 0.13955717 -0.23599061 0.4481551 0.08011261 -0.08218717 0.11082606
0.10736887 0.032755956 0.08179736 0.14391224 0.08998728 0.37659955 -0.049788058 0.054786827
-0.25244278 -0.21829939 0.3800538 -0.0704444 0.36468762 -0.15798257 -0.64564073 0.38144666
-0.055182874 0.3477235 -0.032469735 -0.5888965 0.25876698 -0.012473584 0.18314639 0.07873094
-0.40055957 0.02886176 -0.000617996 -0.130866 -0.106606536 -0.19837433 -0.033905238 -0.0032792587

conv1.bias f4 [6]
00000000: 670a 1f3f 7619 f1bc 6145 c8be 72e0 11bd
00000010: 6ad7 e03d d224 5bbe
0.6212525 -0.029431086 -0.39115432 -0.03561444 0.10978587 -0.21400765

conv2.weight f4 [16, 6, 5, 5]
00000000: 355c fc3d 55c6 e43b 0f75 c73d 5670 7abd
00000010: 7c64 5bbc 9958 053d 625a 13be 5f41 c8bd
00000020: 93cf 28be e0af db3d dcc5 31bd e35d 6bbe
00000030: 2698 8cbe d181 12bc 24d2 963e cc52 ad3d
00000040: be97 85be f89f 96be 6115 24be 23aa 913e
00000050: 1eb4 893e c07d 313d c0cc dcbd 2579 c6bb
00000060: 3aed d13e b1c0 f2bd 6ccb febd 085a 2dbe
00000070: 51a0 8abe c838 a9be 6005 0cbe e1d6 74be
00000080: 6057 87be d8a6 6abe e306 74be c816 10be
00000090: 8449 e8bd af5c 11be 6da0 3bbe 3a46 3dbe
000000a0: 792f a1bd 22ce 80bb 7a9e b5bd d11c 00be
000000b0: 10d4 4ebe 691e f93c 4365 c03d 0e87 063d
000000c0: 55c8 e2bd afba 68be 182c debd 7677 11be
000000d0: 69fa d4bd 5890 48bd c63e c13d 1318 f4bd
000000e0: 17c0 bfbd e897 7bbe 1563 71bd 99b4 423d
000000f0: c4f6 42bd a020 9abd baa5 a7be 1ae7 f1bd
00000100: 3f98 db3a bdfe 12be 8b34 4fbe 262e 61be
00000110: 3f4a 5abe 5ac0 eabd 3cce 02be 791f 87bd
00000120: cbb7 d5bd c0e2 10be c792 3ebd 1e8d e5bd
00000130: 670e a13b b0c7 893d 059b 833d 4dd6 473d
00000140: 7b07 663d 4d80 a2ba 6b3e 003e 6352 073e
00000150: 2431 973d b48d 10bd 7820 133b b5fa aebc
00000160: 7d1c 153d 5bbb a2bd b328 4f3d f010 b03d
00000170: 6af2 9e3d 243c 443d aff7 7a3c a9a4 c93d
00000180: 95b5 753e 9ba6 163e 695d 803c ed0f 093d
00000190: b943 903d 7102 b23d f074 d93d 8676 8d3d
000001a0: 1ace a03d 84c0 1e3c e779 d43d 902b c63d
000001b0: 72bb 8b3e 2602 9d3e 643a 383d 040f 85bd
000001c0: 35f1 ee3d 23f5 3d3e 702e 473e 38ce 7d3d
000001d0: 64ea cfba 085d 1abe 03d8 d03d 11e0 893e
000001e0: 7732 b4bd acec 78bd 966b 29bd 706c 3b3d
000001f0: 1453 583e e071 f33c 3a58 5a3d cce0 a43d
00000200: 7a32 e23d 008f 50bc 446c 823d e8ab 603d
00000210: 771a 9fbd 1881 b0bd 1d83 b13d ef17 54bd
00000220: 2413 433d b462 40bd 272b b63d 82c9 913d
00000230: f6ea 803d 7dc0 643d fffe 103e 9bf6 a33d
00000240: 505d eb3c 5aaf 513e 7fab 903d 2429 fb3d
00000250: 203d 1c3e 8a10 233d 0b17 07be 8692 c9bc
00000260: 9a35 2a3c 7da3 ba3d 98ee e53d 5474 73bd
00000270: 6c6a 2c3d feb2 bdbc 5475 19bc 47dd ce3b
00000280: 5fbe eebd 9c16 6abd 26a4 d4ba bf84 623c
00000290: 8650 f33d 8605 b6bd 7dd8 123e 3156 b33d
000002a0: 2ec4 023e eca3 9b3d 4138 9abe 12bb 31bd
000002b0: c884 76bd 0e02 08bd f7e7 85bd 584c 4b3c
000002c0: 00f3 db3b e3ee 27be d555 843c 0a87 8fbd
000002d0: 3327 73bd dfa1 3f3d 9d97 04be 2748 033d
000002e0: 918a 00bc 3863 85bd f4d2 0bbe a492 0abc
000002f0: dd0b 0bbe 475e c7bc a8f9 d13c 2640 75be
00000300: dc24 8c3d d390 47be 79c2 c93d a125 dfbc
00000310: b3bc 15be 5fcf eb3d 899e 40bd 6d4d fd3d
00000320: a8dc 07be 00cb 3ebd d993 1dbe 4f32 a9bb
00000330: b44f fe3d eda9 e6bb 9bcb a6bd c49c a7bd
00000340: 74ed 3f3c c03f 153e ad68 b8bd fc7e acbd
00000350: de54 37be 52f2 8dbd 9f0a 1cbc bc6c a13c
00000360: b18c fd3d 66a2 403d bcfa 533e e6f6 843d
00000370: b5ca e3bd b524 b53d 3c78 d3bd ad3d f73a
00000380: d6be 38be 9281 a93d 8bdf 2e3d ae76 8b3d
00000390: a635 8c3d 91ad 723d 49ef 213e 9e32 0fbd
000003a0: 58ac 5a3e f68d 243c 71cb 8f3e b70b 293e
000003b0: cb30 023d 7d8b d53e 4e2f 3bbe 61fe d73e
000003c0: 7004 773e 8ae2 b33c 55c9 0b3f aaae 8bbe
000003d0: d187 c33e 9da0 5abc 345f 01be 528a ce3d
000003e0: ddea c3be 0f09 c53c fe79 df3c 20b1 1d3e
000003f0: 7d70 7f3d 04ae e83d 9c27 263e 58f2 433c
0.123222746 0.006981651 0.09739124 -0.06114229 -0.013390657 0.032555196 -0.14389947 -0.097780935
-0.16485433 0.10726905 -0.043401584 -0.22985034 -0.2745983 -0.008942083 0.294572 0.08463058
-0.26092333 -0.2941892 -0.1602378 0.28450117 0.2689523 0.043332815 -0.107812405 -0.006056922
0.41001302 -0.11853159 -0.124411434 -0.16928875 -0.27075437 -0.33051133 -0.13673925 -0.23910095
-0.2643385 -0.22915208 -0.23830752 -0.1407119 -0.11342147 -0.14195512 -0.18322916 -0.1848382
-0.07870383 -0.003930823 -0.08868118 -0.12510993 -0.20198083 0.030410009 0.09394314 0.032843642
-0.110733666 -0.22727464 -0.10848254 -0.14205727 -0.103993244 -0.048965782 0.09435801 -0.11918654
-0.0936281 -0.24569666 -0.058932383 0.047535513 -0.047598615 -0.07525754 -0.32743627 -0.11811657
0.0016753747 -0.14354987 -0.20234887 -0.2199026 -0.21317385 -0.114624694 -0.12773985 -0.065978
-0.10435446 -0.14148998 -0.046526697 -0.112085566 0.004915047 0.067275405 0.06426052 0.048788358
0.056159478 -0.0012397856 0.1252381 0.13215022 0.0738242 -0.03529139 0.0022449773 -0.02135978
0.03640412 -0.079458915 0.050575923 0.085969806 0.077610806 0.047908917 0.015317841 0.098458596
0.2399505 0.14711992 0.015669541 0.033462454 0.07044167 0.08691872 0.10618007 0.06907372
0.07851811 0.009689454 0.103748135 0.09676278 0.27291447 0.30665702 0.04497756 -0.06497005
0.116671 0.18550543 0.19451308 0.061964244 -0.00158627 -0.15074551 0.10197451 0.26928762
-0.08798688 -0.060772583 -0.041362368 0.04575771 0.21125442 0.029717386 0.053306796 0.08050689
0.11044784 -0.012729406 0.06368306 0.054851443 -0.0776872 -0.08618373 0.08667586 -0.051780637
0.047625676 -0.04696913 0.088949494 0.07118513 0.06294815 0.055847634 0.14159773 0.08006021
0.028731018 0.20477048 0.0706396 0.12263706 0.15257692 0.039810695 -0.13192384 -0.024606
0.010388756 0.09113214 0.11227149 -0.05943711 0.04209368 -0.02315664 -0.009366352 0.0063129994
-0.11657404 -0.05715047 -0.0016223236 0.013825594 0.11880593 -0.08887772 0.14340396 0.08756674
0.12770149 0.07599625 -0.30121043 -0.043391295 -0.060185224 -0.033205085 -0.065383844 0.0124083385
0.0067123175 -0.16399722 0.01615421 -0.070081785 -0.059363555 0.04678523 -0.12948461 0.03205123
-0.007845537 -0.06513065 -0.13654691 -0.008457813 -0.13578744 -0.024336947 0.02563174 -0.23950252
0.06842968 -0.1948884 0.09851546 -0.027239623 -0.14622764 0.11514162 -0.04702619 0.123682834
-0.13267767 -0.046580315 -0.1538843 -0.005163468 0.12417546 -0.0070392997 -0.081443034 -0.081841975
0.011714328 0.145751 -0.0900434 -0.08422658 -0.17903468 -0.069309846 -0.009524017 0.019705169
0.123803504 0.047029875 0.20701116 0.06492405 -0.11122648 0.08844892 -0.10325667 0.0018862985
-0.18041548 0.08276667 0.042693656 0.06809746 0.0684617 0.059247557 0.15813936 -0.03496038
0.21354806 0.010043612 0.280849 0.16508375 0.031784814 0.41707984 -0.18279764 0.42186263
0.24122787 0.021958608 0.54604083 -0.27281696 0.38189557 -0.013343957 -0.12633973 0.10084976
-0.38265124 0.024052171 0.02727985 0.15399599 0.062363137 0.11361316 0.16226047 0.011959635

conv2.bias f4 [16]
00000000: 0769 e53d 0215 8cbf 49c6 dabe 8196 3fbf
00000010: 9107 e0be 67d5 183e 371b 7bbf 490a 22bf
00000020: cda4 99be 5048 4fbf 9574 b8be 5577 143f
00000030: 2d24 0a3f f2be 1abf d80b bcbd 0465 f83d
0.11201673 -1.0943911 -0.42729405 -0.74839026 -0.43755773 0.14925157 -0.980884 -0.63296944
-0.30008546 -0.80969715 -0.36026445 0.57994586 0.5396145 -0.6044761 -0.091819465 0.12128642

fc1.weight f4 [120, 400]
00000000: b5f3 9fbd 4d92 87bd d0b9 09be 75ea d8bc
00000010: 1b1d ddbc 0b55 28bd ace0 c13c 826c 0838
00000020: 2c4a 463d d599 ed3c df30 d83c 6ede 8b3d
00000030: b5b7 bb3d 1df5 b33d 155c 7d3d cf36 313d
00000040: 178f 953c e96b c73c 7676 903d c278 693d
00000050: 5e5b e0bc 4af3 2cbc b79f 4d3c 27d5 aebc
00000060: 900c 0dbd 0fd9 cd3c 9b4c 91bd c3c1 2dbd
00000070: 7ded 32bd eb82 8fbc d4c9 7bbd ae0c 42bd
00000080: cb7c 7cbd f6aa d6bc 1257 b73c ca86 cb3c
00000090: a836 f9bb e54f c33c ec64 313d 685b 923c
000000a0: 154e f6b9 1a0c d23b 9f71 26bd d1e3 8f3c
000000b0: 8893 c13c 851e 8dbc 9490 1f3d 7768 8a3d
000000c0: b17c be3d 109a 493d 8d95 9c3b d5ec 863c
000000d0: 9573 cfbb 31c8 833c cd4b e3bc 1892 7bbd
000000e0: eede efbc e5fe 363d bfde 4e3c af9a fa3c
000000f0: 58f6 ed3c f4a5 083d f11f 9ebd e2d3 0bbd
00000100: 5161 34bd 916f 40bd 4534 0d3c 6b6f ae3c
00000110: 0fbc aa3c 8d16 93bc 60e4 8cbc b746 96bc
00000120: 3cae 6f3c ee2e bebc 2cc7 a2bd 2439 a83d
00000130: b509 efbc 6819 0abe 5e46 aabd b5c0 953c
00000140: 461c 4d3c a7d6 de3c f8dd 87bc 1bb4 ff3c
00000150: 464a 103d c0f3 ecb9 8e51 323d 46d4 9139
00000160: b98e 9bbc e3da 2a3d a2ee 73bd df80 ea3c
00000170: 3bcb 993c 3055 60bd ff22 923c 310e d8bc
00000180: a31d 283c 8dce 163d b4ec 5bbd c684 883b
00000190: 0ba4 033b a8b3 8e3c 74ff 5b3c 76ec a2bc
000001a0: f54c babc 2fcb 26bd b54a 833c 1a76 3f3c
000001b0: 9a16 c8bc 3023 2ebc 2af0 9dbc cd99 30bd
000001c0: 14df 263c 697c 03bd b9f8 19bd 8964 0abd
000001d0: 29cc 2cbc cb55 df3c ac9d 3dbd 6878 5abd
000001e0: c508 16bd d09f 24bd 6748 cdbb fca0 89bd
000001f0: 8eac 0fbd 8ac2 87bb de9b 3fbb e738 263d
00000200: 7f7e 183c 130f 2dbd f5e9 093d 2685 35bd
00000210: 3cdc e5bc 0f6d 153c c83d e1bc 2f64 a23d
00000220: e3b7 f53c 132e 11bd aa8f 0bbd c357 203d
00000230: 4d4e 693d d65d 1f3d 18e8 143c 9538 53bc
00000240: 01e9 fcbb a89b 9a3d cf03 113d 6ee2 163d
00000250: 4505 6e3d 9c11 253d b001 793d 0a53 e8bc
00000260: 8c6f 19bd f750 203d 70d8 9e3d 3b5a 343d
00000270: 64a2 953c 6b84 06bd 07a8 22bd ae44 c23b
00000280: 0355 ab3b 75ad a63b 7b73 973c 264f 26bd
00000290: d125 bbbc 3172 bbbd fa7f 1bbd bb60 06bd
000002a0: b14f a1bb 3166 79bd f642 2e3b d5a3 893c
000002b0: 1e25 293d 9942 ce3d d9d7 a53c fb6f 963d
000002c0: eb87 ba3c 6973 9cbd e390 36bd 20ec 5abc
000002d0: 1cbe 46bc 1be3 eeba 497f 0abd f9a1 abbd
000002e0: 4e23 3dbd e5f9 35bd 9cd2 e03c bf8a b73c
000002f0: ac0b afbc d0d5 89bd 337b 72bd e27d 93bd
00000300: 669e 38bd d7d1 a7bd 93ab 3bbd 4a39 8cbc
00000310: cec1 5cbd 2fb3 b33c b4d2 0ebd dab5 0f3d
00000320: dec4 babc c73c a63d 6c55 433c 874f 723b
00000330: bf62 0fbc 9d22 213d 917b 733d 6692 563d
00000340: 1719 ad3c dc79 af3c 1e70 1e3d 03e1 09bd
00000350: 0c03 61bd 5bcc 003c 2d0b 8a3c 5317 6bbd
00000360: dadb e3bc baf1 6b3c 1094 1fbc e283 603b
00000370: 1186 61bd 2e01 1fbd d27c 57bd 97f4 17bd
00000380: 975d f4bd 4b01 6ebc be08 ec3b 8a3a b1bb
00000390: be2b 403d 4074 92bc 7e4b 4b3d db95 583d
000003a0: adaf 553c f1b5 1c3d a922 7b3d 520b 3e3d
000003b0: 4956 cc3c 1d05 b33d 15aa 6e3d 191c 54bc
000003c0: cb2b a23c ca15 7c3c 21b2 903d 837d 8f3d
000003d0: 629b ae3c 595f 0abc f382 543c beff 073d
000003e0: f874 15bc a90f 0a3c eaac a4bc 355b aa3c
000003f0: 1f30 9b3b 7956 14bd 7bed 113c 2558 e93c
-0.07810155 -0.066197015 -0.13449788 -0.026478985 -0.026991418 -0.04109673 0.023666702 3.2525983e-05
0.04841058 0.029004017 0.026390491 0.068295345 0.09165899 0.08786986 0.061855394 0.04326516
0.018256707 0.024343448 0.07053845 0.05699993 -0.027387317 -0.0105560515 0.012550286 -0.021341873
-0.03443581 0.025127916 -0.070946895 -0.042421114 -0.043683518 -0.017518481 -0.061471775 -0.047375374
-0.06164245 -0.026204567 0.022380386 0.024844546 -0.0076053925 0.023841808 0.043309137 0.017865852
-0.00046978952 0.006410134 -0.0406357 0.017564686 0.023629919 -0.017226467 0.03895624 0.06758206
0.09301127 0.04921919 0.00477857 0.016470352 -0.006330917 0.01608667 -0.027746106 -0.061418623
-0.029281106 0.04467668 0.012626349 0.030591337 0.02904813 0.03336139 -0.07720936 -0.034137614
-0.04403812 -0.046981398 0.008618419 0.021293363 0.020841626 -0.017955089 -0.017198741 -0.018344266
0.014628943 -0.023215737 -0.07948145 0.08214024 -0.029179433 -0.13486254 -0.08314203 0.018280366
0.012518948 0.027201964 -0.016585335 0.03121381 0.035227083 -0.00045195036 0.043534808 0.0002781471
-0.018988954 0.041712653 -0.05955375 0.028625904 0.018773666 -0.05476874 0.017838953 -0.026373954
0.010260972 0.036818076 -0.053692535 0.0041662185 0.002008679 0.017419651 0.013427604 -0.019888144
-0.022741774 -0.040721115 0.016026834 0.011685872 -0.02442484 -0.010628507 -0.019279558 -0.043115426
0.010185022 -0.03210107 -0.037590716 -0.033787284 -0.010546722 0.027262589 -0.046292946 -0.053337485
-0.036629457 -0.04019147 -0.0062647345 -0.067201585 -0.03507667 -0.004143064 -0.0029237191 0.04058161
0.009307503 -0.042250704 0.033670384 -0.044316433 -0.028059117 0.00912024 -0.02749528 0.07929265
0.02999491 -0.03544433 -0.034072556 0.039146196 0.05695944 0.03890785 0.009088539 -0.012891908
-0.007718206 0.0754922 0.035404023 0.036837034 0.058110494 0.040299997 0.060792625 -0.028359909
-0.037459895 0.039139714 0.07756126 0.044031363 0.01826591 -0.032841127 -0.039711025 0.0059285974
0.00522864 0.0050865957 0.018487683 -0.040602826 -0.02284518 -0.0915264 -0.037963845 -0.032807093
-0.00492283 -0.060888473 0.0026590205 0.016801754 0.041295163 0.10071296 0.020244526 0.07345577
0.022769889 -0.076392 -0.04457177 -0.013361961 -0.012130287 -0.0018225642 -0.033812795 -0.08380503
-0.046176247 -0.04442777 0.027444176 0.022405026 -0.02136787 -0.067302346 -0.059199523 -0.072017446
-0.045072936 -0.08194321 -0.045817923 -0.017117161 -0.053895764 0.021936027 -0.03486891 0.035085537
-0.022798952 0.08117061 0.011922222 0.0036973672 -0.00875157 0.03933965 0.059444014 0.05238571
0.021130128 0.021420412 0.038681142 -0.033661854 -0.054934546 0.007861222 0.016851032 -0.05739529
-0.027814794 0.014400894 -0.009739891 0.0034258296 -0.055059496 -0.038819484 -0.052609272 -0.037098493
-0.11931913 -0.014526675 0.0072031906 -0.0054085897 0.046916716 -0.017877698 0.04963254 0.05287729
0.013042373 0.03825945 0.06131235 0.046397515 0.024943488 0.0874121 0.05826767 -0.012946152
0.019796273 0.015386054 0.070652254 0.07006361 0.021314327 -0.008445584 0.012970674 0.03320288
-0.009122126 0.008426585 -0.020101983 0.020795444 0.004735961 -0.03621528 0.008906717 0.028484413

fc1.bias f4 [120]
00000000: 4036 81bd 17a7 1d3d 6b2e f73c 08e0 8dbb
00000010: 90a5 133d c905 363d 4fa1 13be f7b5 173d
00000020: 116e 90bd afbb 61bc 4efb f2bd a09b 18bd
00000030: 3e24 02be 38eb ecbd d8f8 53bc 1b92 96bc
00000040: 6fce 2cbc 0577 87bd 55da ccbd 0454 00be
00000050: 2ead 3dbc ee5a 813b aaec e53d 04dd 29bd
00000060: dfc4 d2bd 1329 eb3d 915a 313b d275 78bd
00000070: d988 bb3c 6370 b4bd e56c 97bd 6469 713d
00000080: 2529 ebbd 41dc 12bd 49bb 00bd cbff 6dbd
00000090: bbcf 773d f6f0 8bbd 71d5 f4bc 9954 97bd
000000a0: 3958 9fbd 15ef 963d 0486 03bd 857a d2bd
000000b0: 3793 efbb 62be 0abe 32c3 51bd 919d 5ebd
000000c0: acc2 17bc 6be9 f5bc 1c3b 40bd 19bb 93bd
000000d0: 1e8a 38bd f12b b8bd 682c 30bd 6d1a 923a
000000e0: e1f9 afbc f6c7 e5bd 9437 17be ebe4 53bd
000000f0: f553 d2bc af46 0fbc ad0d 68be 0347 3e3c
00000100: 6f66 c9bd 81db b4bd 5c16 3fbd 3747 8fbd
00000110: bb98 fcbd ee21 00be adf1 16bb e9b5 0e3e
00000120: b7f1 05be 6c6c ff3d b715 00be e5ec a9bd
00000130: 33f7 3a3d 719e 103e 0428 e93c 397b 3ebc
00000140: b5c7 95bd 6a80 b9bd 5152 9fbd acb3 9b3d
00000150: d146 84bd 63c7 6abc c53d 46bd a22f a9bc
00000160: 52dc d63c 097d eabd 7ff0 a9bc da43 a8bd
00000170: 6d78 f4bc db75 223c 1080 c5bc 5b19 d7bd
00000180: a1dc e23c 84de 9cbd de72 c13d d3ee a73d
00000190: 8373 fabc f204 86bd 6e2a 3c3d dcd4 97bd
000001a0: 2841 ce3b c48e 17bd 224f 0fbb b1f3 90bd
000001b0: e1e4 abbd e95c 77bd 8e05 79bd 97ba 0e3c
000001c0: d361 943d c8cd f8bd a533 05be 138e 07be
000001d0: 11fa 04be 0f45 9c3d 51a1 62bd 585a 29be
-0.063091755 0.038489427 0.030173501 -0.004329685 0.036046565 0.04443911 -0.14417003 0.03703877
-0.070522435 -0.013777657 -0.11864339 -0.03725779 -0.12709138 -0.11568302 -0.012937747 -0.018380215
-0.0105472645 -0.06614498 -0.10002581 -0.1253205 -0.011576934 0.0039476072 0.11226781 -0.041470543
-0.102914564 0.11482444 0.0027062038 -0.060659237 0.022892402 -0.088104986 -0.07393817 0.0589384
-0.11482457 -0.03585458 -0.03142861 -0.05810527 0.06050084 -0.06833069 -0.029886933 -0.073891826
-0.07780499 0.0736982 -0.03211023 -0.10277275 -0.0073112505 -0.13549188 -0.051211543 -0.054349486
-0.009262722 -0.030018529 -0.04693137 -0.072134204 -0.045053594 -0.08992756 -0.0430111 0.0011146792
-0.021481456 -0.1121978 -0.14767295 -0.051731985 -0.0256748 -0.00874488 -0.22661467 0.01161361
-0.09833991 -0.088309295 -0.046652183 -0.06996005 -0.123338185 -0.12512943 -0.0023032234 0.1393658
-0.13080488 0.12471852 -0.12508284 -0.08297137 0.045645904 0.1412294 0.028461464 -0.011626058
-0.07313482 -0.09057696 -0.077793725 0.07602629 -0.0645882 -0.014329764 -0.04839875 -0.020652596
0.026228104 -0.1144963 -0.02074456 -0.08216067 -0.02984258 0.009915794 -0.024108917 -0.10502883
0.027693095 -0.07659629 0.09445737 0.08199849 -0.030572658 -0.06543912 0.0459389 -0.074136466
0.0062943883 -0.037001386 -0.0021867235 -0.070777304 -0.083932646 -0.06039134 -0.060796313 0.008711479
0.07245221 -0.12148625 -0.13007982 -0.13237791 -0.12986018 0.076303594 -0.055329625 -0.1653837

fc2.weight f4 [84, 120]
00000000: 4bab debd 5b63 2b3c bd06 d9bc c922 a5bd
00000010: d904 01bd 8666 35bd ee71 85ba 297f 5f3d
00000020: 6dcb fa3c 7bfe eabc efa8 b9bd 4c69 b1bb
00000030: 9fb8 d93b e14d da3d e3d8 1fbc f331 e6bd
00000040: 96ee 3a3d 40bd 843d 6764 353d 19f2 95bc
00000050: da70 eabc 7be6 d2ba a50e b9bd bbc8 8a3d
00000060: eb74 1e3c 3f0b cabd 7c3c b43d 8e4b 43bd
00000070: 9211 7abc b6a8 a43d 27af b2bd 4199 8bbd
00000080: 22be d53d ae71 f7bc 48d8 35bc 5b1b 023e
00000090: 0efa 243d b325 efbd 889d 59bd d6e9 7ebd
000000a0: 3fab 673d 5d0b febd 8766 26bd 7d21 2bbb
000000b0: dbfd 923d 6978 2cbc 1f04 c73c ed1c 8abd
000000c0: 0244 213c b9ba 18ba 65bd 9fbd 7592 c83d
000000d0: f063 8ebc 9393 a83b cc16 fc3d bf70 5fbc
000000e0: 2fc2 843d 22b1 82bd 2de7 76bd a99d f03d
000000f0: 8e44 96bd 7289 16be 87b5 393b 6833 b6bd
00000100: d97b 07b6 608a 93bd 4845 663d d9cc edbd
00000110: 6bbc c23d 76a3 e03c ae67 0fbd 110c 01be
00000120: b1aa 323d 2778 2fbd 2bce 08bd 41e0 3d3c
00000130: 2e93 84bc 5728 d7bd d011 05bd 246a a43d
00000140: b407 71bd a511 8dba 7002 00bc 47eb 5cbd
00000150: 9532 8dbc 4097 72bd 8104 bb3c 14eb e4bd
00000160: aa11 8bbc c5db dd3d 799a f93c 0d23 ccbc
00000170: 5c8d d63d 81a2 3fbd d4ad 18be f9ab 423d
00000180: 3abb 9dbd 24bc 08be 45b0 ebbb 8242 5c3d
00000190: 3969 ba3c 8f8d c03d a5d0 96bd 3c02 503c
000001a0: b855 2a3a d390 cd3d 4af0 5c3d 844c 08bd
000001b0: cc2b 68bd 5652 17bd 59d7 d4bd 9b94 00be
000001c0: 38f9 e2bd e53a 9abd a85b d93c 2250 5ebd
000001d0: 3aef 2cbc 88d4 843d b42c 4d3d 489e 9bbd
000001e0: aa76 933d 1dc8 83bd 132b 23bd 9683 8abc
000001f0: a4e5 95bd 956b bdbd ccd0 78bd 65f3 383b
00000200: 9a65 9ebc 27b0 563d d292 a6bd e3e3 d03c
00000210: 250c 2abd 1a28 943c 783d 72bc 6c01 d83c
00000220: 9a9f 103d 1786 313d 8884 6abc 5ee6 35bb
00000230: 8b0f de3c ed2b 8fba 5608 3a3b 9c8b 59bd
00000240: aa62 a53d e766 05bd 3b0c d63c 1e36 90bb
00000250: bed0 c23b 8b14 313d ac84 243d 4273 89bb
00000260: 39c8 9bbd 5f28 4fbd 03d9 b8bd ad88 b83c
00000270: e013 7fbd ecd6 053d 9f45 e83b 8acb 9bbd
00000280: ac1c 333d aab0 4e3c aa8d 03bd eb8d c33c
00000290: b0b8 3c3d 8da6 9bbd 69d9 adbd 9d7f 40bd
000002a0: 638f 253b 49b4 efbc 005b 1cbd 388e 303d
000002b0: cb6a 4d3c bd57 963c 1e28 3a3d 4918 ff3c
000002c0: 6b97 59bd 044c 28bd a648 16bd 701f d4bc
000002d0: 43dd 5abd eb19 623c f04e bbbd 48b3 e43c
000002e0: a9cb fc3b a523 203d f79b 6abd 65bf 6b3c
000002f0: 6b94 d73c fb96 f23a 2ef6 82bd 4cc7 18bd
00000300: 3cc8 533c edac 37bd 9537 00bc 32d4 4d3d
00000310: 1347 073c b34f 63bc acfd 16bc 6050 913d
00000320: e83e 383b a517 bb3d 2ee9 0abd 7313 923c
00000330: 7791 6ebc 0d1e a3bd 7f1f dfbc ba50 2abd
00000340: 860f ccbd af98 17bd b1e5 9ebd d9e2 3b3d
00000350: b504 afbd 6a02 f8bb 4fea ad3d eba8 e3bc
00000360: e55f f43c ffd1 99bd fd3a 89bd 25ad 40bd
00000370: 7942 a5bd 89ac 3c3d 108b e03c 93dd d93c
00000380: 0aa8 97bd 08c5 d03c c2bf 5b3c 19e5 9bbd
00000390: e278 9bbd 7f5e 6bbd 134a 3d3d 85f3 6b3d
000003a0: 6eca 29bd 53f5 3c3c 7d9a f83b 6373 d5bd
000003b0: 0ecc 18bc 6a0f a0bd dc14 0e3d 9aa2 abbd
000003c0: 76c7 c8bd 711b 8e3c 5b61 00bd 8851 70bc
000003d0: 1660 63bd c870 bdbc 3b4e 5e3b e901 8b3d
000003e0: c68d b33d e8fd 9fbd dcf3 853d c9eb 99bc
000003f0: a547 763d 2f18 503c 1500 15bd 2779 6abd
-0.10872515 0.0104607 -0.02649247 -0.08063275 -0.031498764 -0.044287227 -0.0010181048 0.05456463
0.03061458 -0.028685799 -0.09065425 -0.0054141637 0.006644323 0.106593855 -0.0097563 -0.11239996
0.04563769 0.06481409 0.044285204 -0.018303918 -0.028618265 -0.0016090417 -0.09035996 0.067765675
0.00967143 -0.09865426 0.08800599 -0.047679476 -0.015262978 0.080399916 -0.08724814 -0.0681634
0.104366556 -0.030205574 -0.011098929 0.12705748 0.040277533 -0.116771124 -0.05312875 -0.062234722
0.056559797 -0.12404511 -0.04062512 -0.002611249 0.07177325 -0.010526755 0.024293957 -0.067437984
0.0098428745 -0.00058261637 -0.07799796 0.097935595 -0.017381638 0.0051445453 0.12309036 -0.013637721
0.0648235 -0.06381442 -0.06027906 0.11748821 -0.073372945 -0.14700869 0.0028336958 -0.08896524
-2.0188656e-06 -0.07204127 0.056218415 -0.11611337 0.09508594 0.027421694 -0.035010986 -0.12602259
0.043619815 -0.042839196 -0.033399742 0.011589111 -0.016183462 -0.10505741 -0.03248769 0.08028057
-0.058845237 -0.0010762705 -0.007813081 -0.053935315 -0.017236033 -0.059226274 0.022829296 -0.1117765
-0.016976196 0.10832933 0.030469166 -0.024919057 0.10476181 -0.046785835 -0.1491006 0.047527287
-0.07701726 -0.1335302 -0.007192644 0.053774364 0.022755252 0.09402 -0.073640145 0.012695845
0.00064977584 0.10037389 0.053940095 -0.033276096 -0.056682393 -0.036943756 -0.10392637 -0.12556688
-0.11082691 -0.075307645 0.026532963 -0.05427564 -0.010555083 0.064858496 0.05009146 -0.07598549
0.07200368 -0.06434653 -0.039836 -0.016908448 -0.07319191 -0.09249035 -0.060746 0.0028221246
-0.019335557 0.052414086 -0.081334725 0.02549929 -0.04151549 0.018085528 -0.014785163 0.026367866
0.035308458 0.04334077 -0.0143138245 -0.0027755718 0.02710702 -0.0010923125 0.0028386316 -0.053111658
0.08075459 -0.03256884 0.026128879 -0.0044009825 0.005945294 0.043232482 0.04016559 -0.004194648
-0.07606549 -0.05057561 -0.09025767 0.02252611 -0.062274814 0.03267567 0.0070883776 -0.07607181
0.043728516 0.012615362 -0.032117523 0.023871383 0.04607457 -0.076001264 -0.08488733 -0.0469967
0.0025262467 -0.029260771 -0.038172722 0.04310438 0.012537668 0.018352384 0.045448415 0.03113951
-0.05312292 -0.04108812 -0.036690377 -0.025893897 -0.053433668 0.013800125 -0.091459155 0.02791752
0.007714708 0.039096493 -0.057277646 0.014388894 0.026315888 0.001850813 -0.06394611 -0.03729944
0.012926158 -0.04484265 -0.007825752 0.050251193 0.0082566915 -0.013873982 -0.0092157535 0.070954084
0.0028113667 0.09135369 -0.033913784 0.01783154 -0.014561049 -0.07964716 -0.027236698 -0.041580893
-0.09963898 -0.037010845 -0.07758654 0.045870636 -0.0854582 -0.007568647 0.084919564 -0.027790507
0.029830882 -0.07510757 -0.06700704 -0.047040123 -0.08069319 0.04606298 0.02741006 0.026594913
-0.07405098 0.025484577 0.013412418 -0.07612056 -0.07591416 -0.057463165 0.04621322 0.057605285
-0.041452818 0.011533099 0.007586776 -0.10422399 -0.009325994 -0.0781544 0.03468786 -0.08380623
-0.09803669 0.01734707 -0.031342845 -0.014667876 -0.055511557 -0.023125067 0.003392114 0.06787474
0.087672755 -0.07812101 0.06540653 -0.018789189 0.06012692 0.012701078 -0.03637703 -0.057244446

fc2.bias f4 [84]
00000000: 113c 4e3e d77b d4bd 3904 953d e4f9 383e
00000010: b030 3f3d 0438 693d 2236 c9bb 2da0 b73e
00000020: cb87 af3d d41f b73e c8d9 343e e710 f73e
00000030: 0e0f 8c3d 573d 3a3e 452b 933d e3e8 673e
00000040: 0892 12bb da88 893e 41ba 123e 042d 5c3e
00000050: 818b b73c 5eca ba3e 9bc3 82bd a116 6e3d
00000060: d2fe 343e ef94 0e3e b0e8 d8bb 0cc6 9d3e
00000070: 6e17 5c3e 829a cf3d 90c9 8bbc d5a6 c83d
00000080: 05e4 d33e d77e e93d 9aea f33c 99c5 e83e
00000090: 9de8 593d a999 933e 557f 4f3e 3fd3 873e
000000a0: b56f fe3c 5972 d53d 37b1 3e3e d2a6 703e
000000b0: 7af6 833e 4ea5 923e 21a0 f8bc f15c cf3e
000000c0: 28ee 503e 2b38 49bc 12d9 5e3d 4ff2 833e
000000d0: 44e6 62bd 9376 423e 09e9 cd3d ce76 7b3e
000000e0: 0108 603e 775c 5a3e 2f35 213e dc62 9f3d
000000f0: 9045 693d 840d 2f3d 3775 703e aa51 9b3e
00000100: 84f9 ef3d e2cd 8e3d 572c adbd c335 623e
00000110: e936 5c3e 7699 a0bc 0beb 983e e214 513d
00000120: b182 fd3d da86 9e3e 8f4e 843d 7369 493e
00000130: 9403 4a3e 922d c03d 7507 dc3d c386 433d
00000140: 8699 c03d 58e1 ff3d 8c6d df3d d93a 333e
0.20140101 -0.10375183 0.07276196 0.18064076 0.04667729 0.056938186 -0.0061404863 0.35864392
0.08570822 0.3576647 0.17661202 0.48255083 0.06838809 0.18187462 0.071859874 0.22647433
-0.0022364873 0.26862222 0.14328863 0.21501547 0.022405388 0.3648252 -0.06384965 0.05812705
0.17675331 0.13924001 -0.0066195354 0.3081516 0.21493313 0.10136892 -0.017063886 0.09797446
0.41384903 0.11401146 0.029774953 0.45463255 0.053200353 0.2882817 0.20263417 0.26528355
0.031059125 0.10422201 0.1862229 0.23501137 0.25773984 0.28641742 -0.030349793 0.40500596
0.2040335 -0.012281458 0.054406233 0.25770804 -0.05539538 0.18990545 0.100542136 0.24557039
0.21878053 0.21324335 0.15742944 0.07782528 0.056951106 0.0427375 0.23482214 0.30335742
0.11717513 0.06972863 -0.08455723 0.22090821 0.21505322 -0.019604426 0.29866824 0.051045306
0.12378443 0.3096226 0.06460296 0.19669132 0.19727927 0.09383692 0.1074361 0.04773594
0.09404282 0.12494153 0.10909566 0.17502917

fc3.weight f4 [10, 84]
00000000: 4ade 423e cbcd 82bc e0f7 323e 1e63 71be
00000010: 15e7 2cbd 7d51 9bbd 1e4e 353e 387b e83b
00000020: f9b9 613e f5ad 4c3e ea42 c93d 6f76 9fbe
00000030: 97c0 f23d 8a28 403e 18ed 80b9 0704 c8bc
00000040: 9ef6 b03d 2a33 13be 08bd cc3d 9252 56be
00000050: a985 073e a4b6 77be 6b4c 633e 79c3 d33d
00000060: afdf 8e3d 69bb 55bc 0e7d 773d 2f16 45be
00000070: d4f8 2c3e 48a5 b83d 8587 0e3e 679c 253e
00000080: ea26 b3be 3a86 2dbe 5343 163e fe3d 13be
00000090: e4b9 463e 0475 8abe 0191 0cbe b0b5 7d3e
000000a0: 5860 87be 03ce a1be b6b4 143e ec54 7d3e
000000b0: ae4a 243e e59d 883d 2e09 413e 8ae0 8dbe
000000c0: 7ef6 143e 61c6 42bd cff7 0c3e 9a44 443e
000000d0: fdd9 1cbb 7160 213e 3ccb 84bd 30a1 a0bc
000000e0: a8f5 023d 906b b53c d4e6 bbbc 41b1 7e3d
000000f0: 388a 323d 4bfd 09be fdeb 81bd 2ec4 353e
00000100: 8900 15be de50 ff3d c82e e43d 9dcf 623d
00000110: 7c78 473e e5cb 2b3e 3809 123d 6d92 9fb8
00000120: 5534 a83d 0cfc 66be 22d7 af3d 2b48 a7bd
00000130: a037 523e f2de 1a3e 76b3 02be 9a80 7dbd
00000140: d3d7 083e 5e97 4fbe 0fd1 06be a358 793d
00000150: 7977 5e3e c580 acbc 0e8d 333e 0e4e f83d
00000160: fdad c3bd c256 afbd d381 c8bb a57d 0b3e
00000170: 737a 06be 4f3c b1be c7fd 073e 2337 91be
00000180: fc50 35be 13cf 763e b509 2e3e 3e21 24be
00000190: 9f43 7ebe 23c1 c1bd 8eb6 083d 55e1 dc3c
000001a0: 7323 8b3e 8f6f 90be d118 c6bd fd65 033e
000001b0: 60f6 493e 5a3d 823e 5855 1abd eaa5 983d
000001c0: d6c3 0abe e2ba 723d b55b 89be de3c 203e
000001d0: 566f 80be 02e1 4a3e 8080 323e b925 9dbe
000001e0: 2a88 c0bd 424b 813e c079 37bd 32c0 793e
000001f0: ce9e 0e3e db91 d83d 87d4 2ebe 7457 663e
00000200: a235 1abd 6199 453e 3abf 6bbd 14cf bdbe
00000210: bef1 b1be 8354 8d3d 8846 8dbd c821 7e3e
00000220: 4f56 073d b8b5 f53d fc55 07bd c3ae 873e
00000230: 5ea9 7ebe 4e19 ce3d d37b 1cbe 7c95 59be
00000240: 4cb7 f73d 8994 3e3e 0f88 16be c1dd 02be
00000250: 789d b43c 62ba 4ebe 44cf 87bd 12dd a3be
00000260: dc54 c53d 0867 b73d 7e09 b8be b2ce c3bd
00000270: cf88 e2bd 867e 863e a247 0a3e ae87 13be
00000280: 499d 8a3d 1c9f 413e b8b2 803e d596 3d3e
00000290: a6b3 4f3e 41e4 76be 2441 aebd d5fe 8c3d
000002a0: 75bc 65bc 3a47 e3bd 9ae0 b7bc 4fde b73d
000002b0: 2d5b 8dbd 2114 58bd 8d52 453c f56d d7bd
000002c0: 827d dbbd b881 0c3e 3ec4 153e 2f39 1a3e
000002d0: c577 c83d 3423 05be d84d c63d c8bb 693e
000002e0: d608 f1bc 249c 21be 7bc7 49be 97cb 4dbd
000002f0: d53c f23d 6cef 353e 10e1 813e 5c6c b33d
00000300: 377f 1d3e 288e edbd 9827 513e 6606 85bd
00000310: a149 5c3e d66e 3b39 8430 023e c54e 9cbd
00000320: 0648 423e c5be 2a3e 8a1b 69bc 3cb7 2e3e
00000330: 980f 523b ae12 21bc 1140 36be be79 b8bd
00000340: 63ff 743c 52e2 a8bd 74d5 313e 3dfc 34bd
00000350: d25b 0d3e 8ddd 89be 3336 233e e76c 0a3e
00000360: 7576 3e3e a552 e4bd 9b77 513d 85fc dabd
00000370: 6400 e0bd a735 e0bd 1128 8cbe 15bb 883c
00000380: 3d98 b53c 881a 78be 5d53 703e aa48 253e
00000390: e4c6 443d 615e 013e 6a79 83bd 0e57 513e
000003a0: 40ab 15be 0aed b6bd 5280 583e 27cb 2b3e
000003b0: 4d79 033e 2219 193e 3278 fdbd f917 3ebd
000003c0: 133e da3c 3b02 a03d 9026 c2bd ce46 353e
000003d0: be20 453e e5b0 6e3d fb0d debd ba43 f83d
000003e0: a159 5abe abf6 b73d 0840 a5bd 3206 ed3d
000003f0: 6101 fcbd 0c7f 5ebd e58c 64bd 0651 c93d
0.19030109 -0.01596727 0.1747737 -0.23572966 -0.042212564 -0.07583902 0.1770558 0.007094767
0.22043599 0.19988234 0.09827216 -0.31145045 0.1185314 0.18765464 -0.0002459071 -0.024415983
0.086407885 -0.14374986 0.09996992 -0.20929936 0.13234581 -0.24190766 0.2219712 0.10340018
0.06976258 -0.01304517 0.060421996 -0.19246744 0.16891795 0.090159 0.13918884 0.16172944
-0.34990627 -0.16945735 0.1467412 -0.14379117 0.19406849 -0.270424 -0.1372719 0.2477634
-0.26440692 -0.31602487 0.14522061 0.24739426 0.16044113 0.06670741 0.18851158 -0.27710372
0.14547154 -0.04755247 0.13766406 0.19166794 -0.0023933642 0.15759446 -0.064840764 -0.01960811
0.031972557 0.022146016 -0.022937216 0.06218076 0.043588847 -0.1347553 -0.06343839 0.17750618
-0.14550985 0.12466596 0.11141735 0.055373777 0.19479555 0.16776998 0.035653323 -7.608985e-05
0.082131065 -0.22557086 0.08585955 -0.08168062 0.20529032 0.1512411 -0.12763771 -0.061890222
0.1336358 -0.20272586 -0.13165687 0.060875546 0.21725263 -0.021057496 0.17534277 0.12124263
-0.0955467 -0.085614696 -0.006118992 0.13622148 -0.13132648 -0.34616324 0.13280402 -0.28362378
-0.17706674 0.2410243 0.1699589 -0.16028306 -0.24830483 -0.09460666 0.033377223 0.026962915
0.27175483 -0.28210112 -0.09672702 0.12831874 0.19722891 0.25437433 -0.037679046 0.074535206
-0.13551268 0.059260257 -0.2682778 0.15648219 -0.25084943 0.19812396 0.17431831 -0.30692843
-0.09400971 0.2525273 -0.044793844 0.24389723 0.13927767 0.10574695 -0.1707326 0.22494298
-0.037648804 0.1929679 -0.057555415 -0.3707205 -0.34754747 0.06900885 -0.068982184 0.24817574
0.033041295 0.11997551 -0.033040985 0.2650052 -0.24869296 0.1006342 -0.1528161 -0.2124843
0.12095508 0.18611349 -0.1470034 -0.12779905 0.022047743 -0.20188287 -0.0663133 -0.320046
0.09635326 0.089551985 -0.35944742 -0.095609084 -0.110612504 0.26268405 0.13503888 -0.14407226
0.06768281 0.18908352 0.25136352 0.18514569 0.20283374 -0.2411051 -0.08508518 0.06884543
-0.014021982 -0.1109757 -0.022445966 0.08977949 -0.06902156 -0.05275357 0.012043607 -0.105190195
-0.10717298 0.13721359 0.14625642 0.15060876 0.09788469 -0.1300171 0.09682816 0.22825539
-0.029423159 -0.15782219 -0.19705002 -0.050242987 0.11828009 0.17767113 0.25367022 0.08760902
0.1538056 -0.1159938 0.2042526 -0.06495361 0.21512462 0.00017875 0.1271382 -0.076322116
0.18972787 0.16674335 -0.014227757 0.17062086 0.0032052752 -0.009831114 -0.17797877 -0.090075955
0.014953467 -0.08246292 0.17366582 -0.044185866 0.13804558 -0.26926842 0.15938644 0.13518105
0.18599875 -0.11148576 0.051139455 -0.106926955 -0.109375745 -0.10947733 -0.27374318 0.01669077
0.02216732 -0.24228871 0.234693 0.16141 0.04804124 0.12633659 -0.06419642 0.20443365
-0.14616108 -0.0893193 0.211427 0.16776715 0.12839241 0.14950994 -0.12376441 -0.04640958
0.026640927 0.078129254 -0.094800115 0.17702791 0.19250771 0.05827417 -0.1084251 0.12122293
-0.21323253 0.08982595 -0.080688536 0.11573447 -0.123049505 -0.05432038 -0.05579843 0.09829907

fc3.bias f4 [10]
00000000: 452f a6be 36bb febe 11b5 5cbe b810 f23e
00000010: ac85 b33e 8823 a23c 411f d23d fcba c4bd
00000020: f376 2e3e 1f05 d03d
-0.3245794 -0.49752206 -0.21553446 0.4727838 0.3506292 0.019792333 0.102598675 -0.09605977
0.17037563 0.10157227
